…
nse(128, activation='relu'))\n","model.add(Dropout(0.2))\n","model.add(Dense(10, activation='softmax'))\n","opt = Adam(learning_rate = 0.01)\n","model.compile(opt, loss = 'categorical_crossentropy', metrics = ['accuracy'])\n","print(model.summary())"],"execution_count":15,"outputs":[{"output_type":"stream","name":"stdout","text":["Model: \"sequential_1\"\n","_________________________________________________________________\n","Layer (type)                 Output Shape              Param #   \n","=================================================================\n","conv2d_2 (Conv2D)            (None, 28, 28, 32)        320       \n","_________________________________________________________________\n","max_pooling2d_2 (MaxPooling2 (None, 14, 14, 32)        0         \n","_________________________________________________________________\n","conv2d_3 (Conv2D)            (None, 14, 14, 32)        9248      \n","_________________________________________________________________\n","max_pooling2d_3 (MaxPooling2 (None, 7, 7, 32)          0         \n","_________________________________________________________________\n","flatten_1 (Flatten)          (None, 1568)              0         \n","_________________________________________________________________\n","dense_2 (Dense)              (None, 128)               200832    \n","_________________________________________________________________\n","dropout_1 (Dropout)          (None, 128)               0         \n","_________________________________________________________________\n","dense_3 (Dense)              (None, 10)                1290      \n","=================================================================\n","Total params: 211,690\n","Trainable params: 211,690\n","Non-trainable params: 0\n","_________________________________________________________________\n","None\n"]}]},{"cell_type":"code","metadata":{"id":"CrZ0Dnu1CmlR","colab":{"base_uri":"https://localhost:8080/"},"executionInfo":{"status":"ok","timestamp":16360992011
…
